{"keras_version": "2.0.6", "class_name": "Sequential", "backend": "tensorflow", "config": [{"class_name": "Dense", "config": {"bias_constraint": null, "use_bias": true, "kernel_initializer": {"class_name": "VarianceScaling", "config": {"seed": null, "distribution": "uniform", "scale": 1.0, "mode": "fan_avg"}}, "bias_initializer": {"class_name": "Zeros", "config": {}}, "kernel_regularizer": null, "activation": "relu", "activity_regularizer": null, "batch_input_shape": [null, 9], "kernel_constraint": null, "name": "dense_19", "units": 16, "dtype": "float32", "bias_regularizer": null, "trainable": true}}, {"class_name": "Dense", "config": {"bias_constraint": null, "use_bias": true, "kernel_initializer": {"class_name": "VarianceScaling", "config": {"seed": null, "distribution": "uniform", "scale": 1.0, "mode": "fan_avg"}}, "bias_initializer": {"class_name": "Zeros", "config": {}}, "kernel_regularizer": null, "activation": "relu", "activity_regularizer": null, "kernel_constraint": null, "name": "dense_20", "units": 32, "bias_regularizer": null, "trainable": true}}, {"class_name": "Dense", "config": {"bias_constraint": null, "use_bias": true, "kernel_initializer": {"class_name": "VarianceScaling", "config": {"seed": null, "distribution": "uniform", "scale": 1.0, "mode": "fan_avg"}}, "bias_initializer": {"class_name": "Zeros", "config": {}}, "kernel_regularizer": null, "activation": "relu", "activity_regularizer": null, "kernel_constraint": null, "name": "dense_21", "units": 32, "bias_regularizer": null, "trainable": true}}, {"class_name": "Dense", "config": {"bias_constraint": null, "use_bias": true, "kernel_initializer": {"class_name": "VarianceScaling", "config": {"seed": null, "distribution": "uniform", "scale": 1.0, "mode": "fan_avg"}}, "bias_initializer": {"class_name": "Zeros", "config": {}}, "kernel_regularizer": null, "activation": "linear", "activity_regularizer": null, "kernel_constraint": null, "name": "dense_22", "units": 53, "bias_regularizer": null, "trainable": true}}]}